yolo/ESPCN/weights/weights.pt (torch_old, 86299 bytes, 6 tensors)

conv1.weight f4 [64, 1, 5, 5]
000000 29 5a b3 3c 9c ef 28 3e 95 8f 30 3d c2 26 d3 3d
       0.021893578 0.16497654 0.04310568 0.10310127
000010 71 3d 52 be f1 88 85 3d c5 97 4a 3d 72 10 6d 3e
       -0.2053125 0.0652026 0.049461145 0.23150805
000020 18 57 16 bd 5b 18 77 3d 24 c1 c1 bc 5f b2 c3 3e
       -0.036704153 0.06032596 -0.023651667 0.38222024
000030 81 e2 95 3e 16 6d 89 3d 15 e7 b1 bc 55 a2 40 be
       0.2927437 0.067102596 -0.021716634 -0.18811925
000040 29 c5 56 bc bb 55 2e 3d 1f 73 99 3e e9 c7 58 bd
       -0.01310853 0.042562228 0.29970643 -0.052925024
000050 2f 18 3b bd f9 fb 1a be c7 48 f5 bd 8e 8a 32 be
       -0.04567736 -0.15135182 -0.11976772 -0.17435667
000060 cc 85 ab 3d a7 76 ce be 24 bb f8 be 93 d8 78 be
       0.08375129 -0.403249 -0.48580277 -0.24301367
000070 e9 6f 97 be 10 b0 a6 be bc 06 fc be ee 31 47 be
       -0.29577568 -0.325562 -0.49223888 -0.1945264
000080 d4 67 94 be 31 af d7 bd ca 03 c8 bd f4 97 9a be
       -0.28985465 -0.10531462 -0.09766348 -0.30194056
000090 cb 29 ce be e9 21 d2 be 3b bc c2 bd 51 7d 6e be
       -0.4026626 -0.41041496 -0.09508558 -0.23289992
0000a0 7c 6a 4f be 29 8a 50 be ad 5c 03 be 04 b2 d7 be
       -0.20255464 -0.20365204 -0.12828322 -0.42128003
0000b0 b1 93 80 be 0a 70 d4 be b3 b1 a5 be 39 5b b5 bd
       -0.2511268 -0.4149173 -0.32362136 -0.0885529
0000c0 11 9f 1d be 9d 7c e4 be 7f 50 12 bd 6b ac b8 be
       -0.1539271 -0.44626322 -0.0357213 -0.36069044
0000d0 4a fa 68 be 9b 95 a7 bd 3a 0d 78 be 0b c7 7a bd
       -0.22751728 -0.08182832 -0.24223796 -0.06122498
0000e0 37 af 9a be b6 0e 8f be bb 20 70 be 9f da 48 be
       -0.30211803 -0.2794091 -0.23449986 -0.19614647
0000f0 6f 35 fc bc 04 ba bb be 50 98 14 3d d3 26 ba 3c
       -0.030787198 -0.36665356 0.03627807 0.022723591
000100 a8 8f 87 be cf 03 4d be c7 f6 e0 bd 82 94 d9 bd
       -0.2647679 -0.20020984 -0.10984569 -0.10624029
000110 6c a3 9c 3d bc 24 65 be 5e 79 2f be 24 cd 95 bc
       0.07648358 -0.22377294 -0.17136142 -0.018286295
000120 a6 5a b8 be 6e c2 70 be 7c 1e 7c be 01 3f 15 be
       -0.3600666 -0.23511669 -0.24621004 -0.14574815
000130 d0 04 95 3d f2 c1 82 3d 8b 82 32 3d 00 6d ff 3b
       0.072763085 0.063846484 0.043581527 0.0077949762
000140 7c c5 9c bd 60 f3 42 3d 2c 67 8e 3e 43 48 57 3e
       -0.07654855 0.04759538 0.2781309 0.2102366
000150 0f 1b 39 bd 39 6f e6 3c 29 38 3b 3e cc f8 f8 3d
       -0.04519182 0.028129207 0.18283142 0.12156829
000160 a2 c5 91 3b 5e 51 ff 3d 47 17 8c 3d a5 28 46 3e
       0.0044486085 0.124666914 0.06840377 0.19351442
000170 0e df b7 3d 26 47 b6 bc 2b e6 71 bd fe 00 1c be
       0.08978091 -0.022250723 -0.059057396 -0.15234753
000180 58 f7 85 bd ae 6a 2a 3c 42 c8 96 bd 94 19 06 3b
       -0.06541318 0.010401411 -0.07362415 0.0020462023
000190 81 8c 1c 3d 77 84 d2 3d 45 91 75 3e ec 48 af 3d
       0.038219932 0.10279172 0.23981197 0.085588306
0001a0 17 7c 98 3e 9f e4 a8 3e e5 cb 0b 3e 78 a7 01 3e
       0.29782173 0.32986924 0.13651998 0.1266154
0001b0 49 c0 d6 3e c5 f8 68 3e 39 f9 61 3e 5d 26 5f 3d
       0.41943577 0.22751148 0.22067727 0.054479945
0001c0 e4 cc dc 3e 20 13 d0 3e bd 7d 3b 3d 11 74 ca 3e
       0.4312507 0.4063959 0.04577421 0.39541677
0001d0 21 f2 41 3e 72 8d 89 3e 2c 4a ea 3e fd d4 93 3e
       0.18940021 0.26865727 0.45759714 0.28873435
0001e0 b5 c6 2e 3e cf 86 94 3e e0 49 9a 3e 69 67 91 3e
       0.17067988 0.290091 0.30134487 0.28399208
0001f0 a6 d4 19 3d 66 61 47 be 8f e9 11 be 49 77 24 ba
       0.037556313 -0.19470748 -0.14249252 -0.00062738784
000200 a7 80 80 3d db 53 ed bd f6 63 7b bd 0d 73 21 3c
       0.062745385 -0.1158826 -0.061374627 0.00985409
000210 a7 e2 b9 bd 17 a4 a1 3e 77 d7 8a 3c f2 19 8d 3d
       -0.09076434 0.31570503 0.016948445 0.06889714
000220 b2 7d 52 3e 4d 92 fc be d6 e7 13 be b3 a2 19 be
       0.20555761 -0.4933037 -0.14443907 -0.15003471
000230 4b 2c d5 3d 25 1d 58 3e 7f 2e 94 be 04 9c b9 3e
       0.10408839 0.21104868 -0.28941724 0.36251843
000240 28 61 53 bc 95 3a 22 be b8 69 e4 3d 17 02 be bd
       -0.012901582 -0.1584266 0.11152977 -0.09277742
000250 f2 bc 66 3e a5 44 93 bd d8 ab 9c 3e e4 80 b9 3e
       0.22533014 -0.07190827 0.30599856 0.36231148
000260 5a f7 47 3e e7 5a c9 3e 2c 7b cf 3e 36 a3 a3 3e
       0.19527951 0.39327165 0.4052366 0.31960458
000270 4b 6a ca 3e b9 84 cf 3e f2 e5 04 3f 33 df b6 3e
       0.3953422 0.40530947 0.5191337 0.35717162
000280 10 7f 01 3f 81 ab f1 3e ea 34 3e 3e 32 b8 1e 3e
       0.50584507 0.4720116 0.18574873 0.15499952
000290 89 4a 4f 3e 11 65 21 3e 54 85 d2 3e e3 31 3d 3e
       0.20243277 0.1576121 0.41117346 0.18476062
0002a0 e5 a4 88 3e 49 3a 27 3e 51 1b 80 3e e6 8d f8 3e
       0.26688305 0.16330828 0.2502084 0.4854576
0002b0 9d 90 31 3e e6 92 73 3e 97 b8 b4 3e 4a 7d e1 3e
       0.17340322 0.23786506 0.3529708 0.440409
0002c0 7e 12 83 3e e4 2b 49 3e 3d ca 00 3f 19 99 b3 3e
       0.25600046 0.19645649 0.5030859 0.35077742
0002d0 a1 b6 1f 3e 0b ae 72 3e b8 45 b8 3e 9d a8 29 3e
       0.15597011 0.23699205 0.3599069 0.16568227
0002e0 d8 64 18 3e 6c 36 9d 3e 14 ac d8 3d cf e0 13 3e
       0.14882219 0.30705583 0.10579696 0.14441226
0002f0 3d e7 02 3f 34 8f c3 3d 01 8c ab 3e fc c2 ee 3d
       0.5113409 0.09548798 0.33505252 0.11658284
000300 da c1 e0 3e 72 63 fd 3e 26 82 63 3e 78 dc 46 3e
       0.43897897 0.49489933 0.22217616 0.1942004
000310 15 76 88 3e dd 00 00 3e 20 e2 8a 3e 3b 46 cc 3d
       0.2665259 0.1250033 0.27125645 0.09974333
000320 97 79 26 3d 09 6f ac bd b5 ce 31 3d e7 bb 88 3d
       0.0406433 -0.08419616 0.04341002 0.066764645
000330 98 be 98 3c 62 3c 2b 3e 35 00 74 be 50 0d 35 3e
       0.01864557 0.16722253 -0.23828204 0.1768086
000340 31 e1 84 bd 78 03 7e 3e 9a 50 93 3d 8d 58 a3 be
       -0.06488264 0.2480601 0.07193108 -0.31903496
000350 e0 a4 c1 be 9b c2 74 be 5d b5 ef bd 66 f9 00 bd
       -0.37821102 -0.23902361 -0.11704514 -0.031487845
000360 28 55 7a 3d 26 1f f5 bd 17 f0 a1 3e 34 08 73 3e
       0.061116368 -0.11968832 0.31628487 0.23733598
000370 af ae eb bd 95 ca 3a bd 2b 38 41 3e 4a 43 39 3e
       -0.115079276 -0.045603354 0.18869083 0.18092075
000380 ac 46 20 bd 76 1f 95 bd 61 57 46 3d d1 d7 5c be
       -0.039129898 -0.07281391 0.048423175 -0.21566702
000390 d9 00 0a be 25 d7 4a be e6 9d cf bd f9 28 33 bd
       -0.13476886 -0.19808634 -0.101375386 -0.043740246
0003a0 22 ee 72 bd 4a c5 6e be 8a 72 95 bd f8 dd 8f be
       -0.059309132 -0.23317447 -0.07297237 -0.28099036
0003b0 72 1f fa bb 47 15 9e 3c 45 1a 02 be e0 2a 91 3d
       -0.007633143 0.019297255 -0.12705334 0.07088256
0003c0 5f ad 5d be 72 1a c8 be ab f8 18 be 40 ae 2c be
       -0.21648167 -0.39082676 -0.1493861 -0.16863346
0003d0 e3 b9 a5 bd c6 fb 06 bd e2 cb 91 be 41 2c d9 bd
       -0.08092096 -0.032954954 -0.28475863 -0.10604144
0003e0 16 56 61 be 5d b5 57 be 1d d6 33 be f9 9b e8 bb
       -0.22005495 -0.21065278 -0.17562146 -0.0070986715
0003f0 c1 6f b9 3d 75 61 05 be d7 d7 9a 3d 4c 30 24 3d
       0.090545185 -0.13025458 0.075606994 0.040085122

conv1.bias f4 [64]
000000 81 01 d3 be b1 cc 75 be b7 13 57 be 65 05 d9 be
       -0.41212085 -0.24003865 -0.21003614 -0.42386928
000010 8d 37 b3 3d 76 8a 22 3e e8 38 2d 3e 35 03 f8 3d
       0.0875083 0.15873131 0.1691624 0.12109987
000020 d2 a6 22 3d 35 e9 02 be 00 b8 de be d8 99 8e 3e
       0.039709873 -0.12784274 -0.43499756 0.27851748
000030 bc 09 b8 be f0 48 5a 3e f0 76 c6 bd 1d 72 d0 3e
       -0.35944927 0.21316886 -0.09690654 0.40712062
000040 8f 05 b5 be 08 6c 9f 3e d3 bd 98 3e 53 5e ab be
       -0.35355803 0.3113711 0.29832324 -0.334704
000050 4a 42 41 bc 6f ab c4 be 41 a4 c3 3e 0f a6 50 3e
       -0.01179559 -0.38412043 0.38211253 0.20375846
000060 f2 e4 56 be 45 c2 a4 3e 31 da 61 be 06 70 4c 3e
       -0.20985773 0.32179466 -0.2205589 0.19964609
000070 e5 7c c9 3e 09 2c 0f bd 47 cb 02 3f 32 ab 83 be
       0.393531 -0.034954105 0.51091427 -0.2571655
000080 b6 1a 8c 3e 9b 41 14 be ce d0 cf 3e 82 a2 76 3e
       0.2736413 -0.14478152 0.40588993 0.2408543
000090 6d 76 b3 3e 8f 9d 34 be 86 85 fe bd bf 14 48 bd
       0.3505129 -0.17638229 -0.12427811 -0.04884791
0000a0 f4 20 42 be 9a ec c3 3d e9 c5 ac 3e 7b b6 5a 3e
       -0.18957883 0.095666125 0.33744743 0.21358673
0000b0 d8 84 88 be 9e 53 b3 3e fd 6c a5 3e ce ff 78 be
       -0.26663852 0.35024732 0.32309714 -0.24316332
0000c0 0b 6a e1 be 1e 6b a1 bc 89 b7 a8 3d ec 49 95 be
       -0.44026217 -0.019704398 0.082381316 -0.2915796
0000d0 eb 0b 6c be fc af c1 3e de 0e bd bd 5a 36 e9 3e
       -0.23051421 0.37829578 -0.09231351 0.4554928
0000e0 ef 5a 68 3e 7b 23 8c be 5e 86 c6 3e 07 47 7d be
       0.22690938 -0.2737082 0.3877439 -0.24734126
0000f0 b6 99 96 be ce cd a8 3e f5 f1 bd be 41 10 53 3e
       -0.29414147 0.32969517 -0.3709866 0.20611669

conv2.weight f4 [32, 64, 3, 3]
000000 2e 06 0c bc db 07 af bd bc 41 19 be ed ce 93 bd
       -0.008546395 -0.0854642 -0.14966482 -0.07217202
000010 fb 06 36 b9 8d e5 89 3b 23 da 68 be 3b bf 77 bd
       -0.00017359473 0.004208273 -0.22739463 -0.060485106
000020 d2 5a ba bd 8c 94 83 3d ae 04 8b 3d bb 35 0f 3d
       -0.09099354 0.064248174 0.06788002 0.03496335
000030 36 3e 27 3d f7 6a bf 3d 72 fa d4 3d 1a 60 92 3d
       0.040830813 0.09346574 0.10399331 0.07147236
000040 6f da e5 3d 6b b1 57 3d cf 72 cd 3c 47 c8 58 3d
       0.112233035 0.052659433 0.025079159 0.052925374
000050 be 0c 11 3d 7b 68 d6 3d df f6 e3 3d ee 9a be 3c
       0.035412543 0.10469147 0.11131071 0.023267236
000060 46 1b 9b 3d 8a 7d 81 3d ea b3 02 3d 55 07 5e be
       0.07573561 0.06322773 0.03190986 -0.21682484
000070 b8 0f da bc 59 8a 76 3e 4b 92 fb bd c5 c9 59 3d
       -0.026618823 0.24076213 -0.122837625 0.053170938
000080 5e de 54 3e fa 21 5d 3e 10 88 95 3e f5 2e 24 3e
       0.20787951 0.21594992 0.2920537 0.16033538
000090 a1 16 a9 3b b1 05 a1 bc 26 df 22 bd 13 ff 9a bd
       0.0051601683 -0.019656034 -0.039763592 -0.07568183
0000a0 d5 75 13 bd 74 89 34 be 6f d9 d6 bc 3a f6 51 bd
       -0.036001045 -0.17630559 -0.026226727 -0.05126021
0000b0 3e 8c 0a be f8 30 99 3e 27 56 2a bf 77 ac ad 3e
       -0.1353006 0.29920173 -0.6653771 0.33920643
0000c0 31 6d 8f be 65 62 92 bf b9 f2 b4 3e 50 b6 e7 3e
       -0.28012994 -1.1436278 0.35341433 0.4525628
0000d0 b8 28 7d be 9d ce 80 3e 6f 99 d1 bd 81 f9 04 be
       -0.24722564 0.25157633 -0.10234343 -0.12985803
0000e0 90 6b bb bd ba 66 15 be 7d bb 22 be a4 32 7c bd
       -0.09151375 -0.14589968 -0.15891834 -0.061571732
0000f0 27 d5 a3 bd fe 72 0e be 58 2d a4 bd 5f 8e 97 bc
       -0.0799964 -0.13911054 -0.08016461 -0.018500505
000100 5f 18 c2 bd 2a 40 09 be 9d e0 a9 bc 48 f7 48 bd
       -0.09477305 -0.13403383 -0.020736987 -0.04906395
000110 7d 7d 05 be 30 2b ad bd 6f fa 03 be 9d 75 2e be
       -0.13036151 -0.08455503 -0.12888502 -0.17037053
000120 e0 96 dd 3e 0f 80 3b 3e 84 3f 5c bd 05 db 0a be
       0.4327917 0.18310569 -0.05377151 -0.13560112
000130 77 62 d3 be c7 24 b0 be 48 0b 10 3e 85 58 a9 3d
       -0.4128606 -0.3440306 0.14066803 0.08268837
000140 55 7b 82 bd 29 43 1c 3d 44 ff b3 3d 49 bf 0a bd
       -0.0637118 0.038149986 0.087889224 -0.03387383
000150 3a df ee 3d 83 68 35 3e 87 f0 f0 3d 2c 19 8c 3d
       0.11663671 0.1771565 0.11764627 0.06840739
000160 be 78 d1 3d d7 0a fd 3d b9 c3 7d 3e 8d b5 72 3d
       0.10228108 0.12355583 0.24781694 0.05925517
000170 2a 65 63 bd ac 8a 4e 3e a0 c0 1c 3e be 49 73 be
       -0.0555164 0.20170087 0.15307856 -0.23758599
000180 aa 51 81 3d 97 7d 90 3e db 76 af 3d b4 ab 32 3b
       0.06314404 0.28220817 0.08567592 0.0027262988
000190 6d e5 a5 bc 83 cb 4b 3d 54 02 fc 3c a1 93 2b bc
       -0.020251 0.04975463 0.030762829 -0.010472209
0001a0 87 7e 96 3b 54 08 58 3d d3 b7 9c 3c 03 99 ae bc
       0.00459272 0.052742317 0.019130623 -0.021313196
0001b0 45 af 85 3e 38 c7 82 3c 01 5a 99 3a 56 f6 90 3e
       0.26110283 0.015964136 0.0011699797 0.2831294
0001c0 57 e4 29 3e 82 cc 21 3e 9e a2 14 3e ad 9d 0e 3e
       0.16591011 0.1580067 0.14515159 0.13927336
0001d0 12 dc 7b 3e 57 98 01 be f2 90 30 be c2 a4 08 be
       0.24595669 -0.1265577 -0.17242792 -0.133441
0001e0 54 37 55 bd 40 21 0c be 7a 85 08 be 35 03 9a bd
       -0.052054718 -0.13684559 -0.13332167 -0.07520143
0001f0 95 d5 36 be 73 52 04 be 6f 68 89 3c b9 01 81 bd
       -0.17854913 -0.12922077 0.01677343 -0.06299157
000200 ad e7 9a bd ba 9c 6f bd 84 34 9c bd b8 9f 83 bd
       -0.0756372 -0.058499075 -0.07627204 -0.06426948
000210 be 8f 1c bd 7d d9 56 bd 2e c2 d7 bc 69 bd 85 be
       -0.03822302 -0.052453507 -0.02633771 -0.2612107
000220 da 44 f3 bd d5 3c 0b be bb 89 97 be c0 8a 7b be
       -0.11878367 -0.13597424 -0.29597268 -0.24564648
000230 81 cf 5b be 5f ab 46 be 68 c1 62 be 65 e9 a0 be
       -0.21465875 -0.1940131 -0.22144091 -0.31428066
000240 e6 3b 29 3e 9b 01 36 3e 5d d9 51 3e cc 89 a0 3d
       0.16526756 0.1777405 0.20493074 0.07838783
000250 53 eb 3e 3d c7 4f 36 3d 56 bd 92 3d 4c 8d 56 3d
       0.04661114 0.044509675 0.07165019 0.052380845
000260 19 34 e9 3c e8 68 c7 3d 26 ae 9d bd 7a a2 29 3d
       0.028467225 0.09736806 -0.07699232 0.041414715
000270 36 45 06 be 1d c6 e5 be 64 a8 a6 bd b8 1b 03 3d
       -0.1311234 -0.4487771 -0.08137587 0.032008857
000280 0e e5 aa be 9f be ac 3c 7a fb 73 bc ca be 2c 3e
       -0.3337788 0.021086989 -0.0148915 0.16869655
000290 83 4f 9f 3e 69 fe a0 be a3 d0 a3 be b2 6c 03 3e
       0.3111535 -0.314441 -0.31995115 0.12834433
0002a0 3f 0b 55 bd 03 f7 a9 be 79 e1 61 bd 38 2c 5d bf
       -0.05201268 -0.33196267 -0.055146668 -0.863956
0002b0 89 71 8b be 84 0b 2f be ef c5 8a 3d dc b7 73 3f
       -0.27235058 -0.17094237 0.06776034 0.9520242
0002c0 cc 8a 95 3e 57 b7 d5 be da fa b6 3e d7 9e f0 b9
       0.29207456 -0.4174144 0.3573826 -0.00045894712
0002d0 58 ef fb bb f7 b4 a1 3c 7a 61 2f bd 03 9c f6 bc
       -0.007688444 0.019739611 -0.04281757 -0.030103689
0002e0 5c be 86 3d 77 b4 08 bd 75 99 48 3d bf 9f c2 3d
       0.06579277 -0.03337523 0.048974473 0.095031254
0002f0 38 c9 67 3b 1b b1 6d 3e 14 c0 44 3e 06 c3 58 3c
       0.0035367738 0.23212092 0.19213897 0.013230091
000300 3a a4 fb 3d 0b 4d 93 3e ec 09 3d 3e 3b d1 b7 3d
       0.12287183 0.28769717 0.18460816 0.089754544
000310 5e b0 56 3e cf 0a 75 3e 4e b1 b4 3e 8d de 85 be
       0.20965716 0.23929904 0.35291523 -0.26146355
000320 a2 db 06 be 8c c2 a6 bd 6f 1d 21 bf ba ae 3b bd
       -0.13169721 -0.081425756 -0.6293554 -0.04582093
000330 d4 b6 ab bd 3e e8 05 be e1 46 ce 3e 13 eb ff bd
       -0.08384481 -0.13076875 0.4028845 -0.12496009
000340 26 a9 e5 bd c5 07 c6 bd f3 4b c2 bd 62 93 0d be
       -0.11213903 -0.09669451 -0.094871424 -0.13825753
000350 43 7e d0 bd 3d d3 19 be 3e 6d 02 be c5 bf 99 bd
       -0.101803325 -0.15021987 -0.12736985 -0.0750728
000360 43 fe 94 3c bd fa 16 3d a6 ef 83 3d f4 e8 eb 3d
       0.018187648 0.036860216 0.06442194 0.11519042
000370 ba db 27 3e d0 eb 32 3e 09 68 74 3d 64 29 b2 3d
       0.16392413 0.17472768 0.05966953 0.08699301
000380 16 db f8 3d d7 cf 39 bd b4 f9 9b bd 50 cd ab bd
       0.12151162 -0.045364227 -0.076159865 -0.083887696
000390 cb 66 d7 bd 87 1c 5f bd 53 d6 fd bd 9f b7 3e bd
       -0.10517653 -0.054470565 -0.12394395 -0.046561833
0003a0 e2 6d a2 bd e2 1b b4 bd 14 d3 94 be 0c 6b 13 bf
       -0.07931115 -0.08794381 -0.2906729 -0.57585216
0003b0 0f 83 64 be 15 71 57 3f 26 6b 0c 3f 99 1a 8e 3c
       -0.2231562 0.84156924 0.54850996 0.017346667
0003c0 b3 62 a3 3e 8b a4 c9 bd 8a b8 17 bf 33 1e 80 3c
       0.3191124 -0.09845837 -0.5926596 0.0156394
0003d0 84 39 13 bd 6e d0 88 bd b8 72 b8 bc aa 67 97 bd
       -0.035943523 -0.0668038 -0.02251564 -0.07392819
0003e0 77 56 e3 bd e5 a3 e4 bc d3 1d 2c bd 11 78 83 bd
       -0.11100476 -0.027910182 -0.04202063 -0.06419385
0003f0 4d 6d 89 be 77 b4 c6 be 38 35 87 be f6 16 ac be
       -0.26841202 -0.3880956 -0.2640779 -0.33611268

conv2.bias f4 [32]
000000 f7 ef 8c bd 29 8e ea 3e b3 09 67 bd d8 ec b5 3d
       -0.06881707 0.45811585 -0.056405734 0.08883065
000010 be b0 fc 3d 58 30 5d be 48 96 06 be 9e 34 07 3e
       0.123383984 -0.21600473 -0.13143265 0.13203666
000020 fa e7 84 bd 08 31 2b 3e 0f ec 33 bc b9 38 c5 bd
       -0.064895585 0.16717923 -0.010981574 -0.096299596
000030 61 b1 c9 bc e9 5f 0f be 75 91 26 3e f8 e0 3a 3e
       -0.024620714 -0.1400143 0.16266425 0.18249881
000040 86 c3 e7 bb 1a 96 d0 bd 83 62 79 3e c3 ae a0 3d
       -0.0070728688 -0.101848796 0.24353985 0.07845833
000050 01 44 f9 bd 08 1c 34 be 4c 0a dc 3b d8 13 0e bd
       -0.12171174 -0.17588818 0.0067150947 -0.034686893
000060 fe d9 bc 3e fa c8 4a 3d c0 35 d9 3d 10 7a 78 3e
       0.36885065 0.049508072 0.10605955 0.24265313
000070 64 7e 08 be 25 da 34 be 91 b2 65 bd 49 e7 7c be
       -0.13329464 -0.1766134 -0.056078497 -0.24697603

conv3.weight f4 [4, 32, 3, 3]
000000 f9 86 dd 3d 32 20 7d 3e 46 cc 30 bd 61 d9 66 3e
       0.108167596 0.24719313 -0.04316356 0.22543861
000010 99 b5 bb 3e c2 1f 80 3d dd 50 3c bd a1 06 2f 3d
       0.36661986 0.06256057 -0.045975555 0.04273093
000020 7c 90 76 bd dc 79 9d 3d 4b b7 91 3d 27 96 bc 3a
       -0.060196385 0.076892585 0.071150385 0.0014388011
000030 85 15 b3 3d f6 48 00 3e 0c 06 09 3d 5c 83 03 3d
       0.08744339 0.12527832 0.033453032 0.032107696
000040 33 a1 b5 3d 8b f5 a4 3c bd 29 af bd 24 fd 91 bd
       0.08868637 0.020136615 -0.08552883 -0.07128361
000050 7d 33 4d bd b9 3c af bd 46 82 00 be 71 f9 17 be
       -0.05009793 -0.08556504 -0.12549695 -0.14841248
000060 78 2f a6 bd 31 b9 49 bd 7d ee e9 bd 6f 58 42 3d
       -0.08114523 -0.049248878 -0.11422441 0.047447618
000070 e9 8e 1c 3e ff 1a c1 3d 77 8d ea bb 9d 71 05 bd
       0.15288891 0.09428977 -0.007157977 -0.032579053
000080 ba 45 7c 3c 6b 92 07 3e ba ff 0b 3e 28 55 03 3e
       0.0153974835 0.13239448 0.1367177 0.12825453
000090 e1 64 46 3d 5f b4 3b 3e b6 6c 0b bc fb 3a 2c 3e
       0.04843605 0.18330525 -0.008509805 0.16819374
0000a0 ce b5 9a 3e 9c df 63 3d 4e 6d 5a bc 7d 44 ca 3b
       0.3021683 0.055633172 -0.013331724 0.006172715
0000b0 1a 8c d2 bc 18 55 d3 bc 53 32 02 bd d6 32 cc bb
       -0.025701571 -0.025797412 -0.031786274 -0.006231646
0000c0 bc a0 2b 3d 8d 92 9b 3d 06 d5 36 3d 19 0a 06 bd
       0.041901335 0.07596312 0.04463675 -0.032724474
0000d0 c4 b9 31 3c aa e2 8f 3d f5 bf c4 bd 76 93 5a bd
       0.010847513 0.070256546 -0.096069254 -0.053363286
0000e0 c0 57 5e bd 1e 23 71 bc d7 03 5e bd d4 66 a1 bd
       -0.054282904 -0.014717845 -0.05420288 -0.07880941
0000f0 70 b5 ab bc 72 e1 9e b9 d7 91 b7 bd 7c d9 e1 3d
       -0.02096054 -0.00030304078 -0.089633636 0.1102781
000100 b6 60 f0 3d d4 ff 3c 3d 3a 64 26 3e 36 dc c6 3d
       0.11737196 0.046142414 0.16249171 0.09709971
000110 7d 64 2d 3e 23 7a 7d 3d 83 c4 d5 3d 41 70 0c 3e
       0.16932864 0.061884057 0.10437872 0.13714696
000120 5f 67 c3 3d c5 5e 94 3d f1 a8 34 bb 23 d9 37 3d
       0.09541201 0.07244638 -0.0027566517 0.044884812
000130 49 c8 c7 3d 65 84 54 3d 25 08 25 3d 09 44 88 bc
       0.09754998 0.051884074 0.04029097 -0.016634004
000140 de 13 2b 3d 28 af 1e 3d 2f 13 36 3e f0 29 15 bc
       0.041766994 0.03874126 0.17780755 -0.009104237
000150 90 2f f3 3d e4 91 9a 3e e7 24 41 3b 96 c2 22 3c
       0.11874306 0.3018943 0.0029471458 0.009934088
000160 e9 34 d9 3b a9 68 c9 3c e7 a1 06 be 0e 6d 23 bd
       0.006628622 0.024586039 -0.13147698 -0.039898925
000170 2a f9 cb bd 9d a3 aa bd e2 8a 70 bd 71 36 e0 bd
       -0.09959634 -0.08331988 -0.0587262 -0.10947884
000180 57 44 84 bd 1a fd 0a bd 5c a7 c8 bd dc 29 26 3d
       -0.06458347 -0.033932783 -0.09797546 0.040567264
000190 f3 4e 34 bc ee 3d d0 3d c8 23 25 3d cc 71 34 3c
       -0.011005151 0.10168062 0.040317327 0.011013459
0001a0 9c c8 0d 3d 78 04 76 3d f1 3d ff 3d 7e 5c 80 3d
       0.034615144 0.060062855 0.12462986 0.062676415
0001b0 c3 8d 22 3d 70 10 48 3d e2 5f 9e b9 ee 44 6b 3c
       0.039685976 0.0488438 -0.00030207547 0.014359696
0001c0 a5 c5 e6 3c 55 5f e7 3c 68 97 10 3b 27 67 be 3d
       0.028170416 0.0282437 0.0022062901 0.092970185
0001d0 3d 86 e0 3c e4 0c 2a bc dc f4 86 bc 7c dd df 3b
       0.02740776 -0.01037905 -0.01647418 0.006831823
0001e0 7e b5 52 3d 38 f1 40 3b d0 3a ca bc 9d e6 34 3d
       0.051442616 0.0029440653 -0.024686247 0.044165242
0001f0 96 ae ab bd b2 cc 48 bd b6 d6 18 bd 82 a1 c7 bc
       -0.08382909 -0.049023338 -0.03731414 -0.024369005
000200 4f 2c 31 bd 24 e1 1c bd 97 92 70 bd 4e eb 05 bd
       -0.043255147 -0.03830065 -0.05873355 -0.032695107
000210 ae d5 d0 bd 6b 47 89 bd 67 29 c3 bd 3a a9 7c 3d
       -0.10197006 -0.06703075 -0.09529381 0.061684825
000220 b0 40 d9 3d 0a e8 28 3d 0c e7 49 3c 4d bc b8 3d
       0.10608041 0.041236915 0.012323152 0.090202905
000230 5c 52 a9 3d 57 f4 5d 3d 67 3b d2 bc 14 be 3a bc
       0.08267662 0.0541881 -0.02566309 -0.011397857
000240 00 81 1a be 37 ee e5 bd 08 ed 9a bd e3 9d fd bd
       -0.15088272 -0.112270765 -0.075647414 -0.1238363
000250 a2 36 ee bd c3 7b 90 bd bc 18 27 be a6 53 f5 bd
       -0.11631514 -0.07054856 -0.16318029 -0.11978845
000260 78 ff 88 bd 39 4a ae bd ba 4b 8d bd 21 bc 04 be
       -0.06689352 -0.085102506 -0.06899209 -0.1296239
000270 f2 30 c5 bb fa 4e e2 bc ee 1f 9e bd 89 09 4f bc
       -0.0060177976 -0.02762555 -0.07720934 -0.012636551
000280 aa 59 a1 bd 7b 15 64 bd e0 e2 37 3d 30 31 93 3d
       -0.0787843 -0.055684548 0.0448941 0.07187116
000290 9a d3 be 3d 7a 28 2f 3d 9e e8 4d ba 61 32 bb 3d
       0.093177035 0.04276321 -0.0007854792 0.091404684
0002a0 4d c6 bf 3d 5e 56 a6 3d 9a 94 95 3d 97 0a 21 3d
       0.09363995 0.08121942 0.07303734 0.03931674
0002b0 b4 fc df 3d ff 3c e4 3a 39 b6 ba 3d 8c e9 1e 3e
       0.10936871 0.0017413198 0.091167875 0.15518779
0002c0 c2 02 fc 3c e3 df 83 3b 17 84 90 3c 35 a4 28 ba
       0.030763034 0.004024492 0.01764111 -0.000643316
0002d0 32 b4 29 bb 9b a7 af bd 95 28 52 3d 5b 0b dd 3c
       -0.0025894758 -0.0857689 0.051308233 0.026982954
0002e0 64 3d e0 bb d0 fa 5b bd ef 60 33 3d 4b a3 26 bd
       -0.006843256 -0.05370599 0.043793615 -0.040683072
0002f0 44 88 06 3b fb d5 3c bd 15 eb d6 bd b8 4a a6 39
       0.0020527998 -0.046102505 -0.10494057 0.00031717657
000300 df 75 b4 bd 91 c6 27 be 75 b8 ca bc 95 8b 80 bb
       -0.088115446 -0.16384341 -0.02474616 -0.0039228895
000310 13 e8 64 bc 78 48 32 3b 38 a1 7c 3d 16 7d 21 3d
       -0.013971346 0.002720384 0.061677188 0.039425932
000320 bb 42 fe 3c 0b f3 86 3d c1 75 02 bd ec 62 88 3c
       0.031037679 0.065893255 -0.03185058 0.016648732
000330 e4 48 6f 3d 85 bd be 3d f5 5d d0 3d e4 85 38 3e
       0.058419123 0.09313492 0.10174171 0.18019825
000340 bf 2e d4 3d d5 d6 8b bc 04 80 4b 3d ba a7 2d bd
       0.103604786 -0.017070213 0.049682632 -0.042396285
000350 25 a1 fd bd ec 6d 4c 3d 2b 9f 33 3d 1d f7 43 3d
       -0.123842515 0.049909517 0.043852966 0.047843087
000360 6a 19 9a bd 4b 39 01 be 1a 39 1d be 44 bb dc bb
       -0.075243786 -0.12619512 -0.15353814 -0.006736191
000370 ee 93 ee bc 9a f8 62 b8 fc 9a 84 bc d1 57 16 bd
       -0.029123273 -5.4114127e-05 -0.016187184 -0.036704842
000380 10 8a b3 bd 8d eb 92 bd b8 b0 0f be be 09 5c bd
       -0.08766568 -0.07173834 -0.14032257 -0.05372023
000390 ae 72 5f bd 95 bf 58 bd c8 db 1e bd 18 1e a8 bd
       -0.054552726 -0.052917082 -0.03878382 -0.08208865
0003a0 2f d4 8d bd ce 10 5e bd e2 0d a1 3d d1 3d e2 3d
       -0.069252364 -0.054215245 0.07863976 0.11046947
0003b0 90 77 ec 3d 9e 02 62 3c c5 7f fc 3c c1 37 cd 3d
       0.11546242 0.013794569 0.030822644 0.100204
0003c0 4e ca 0b 3e a6 eb 14 3d de 5b 33 3e 36 fb 6c 3a
       0.13651392 0.036357544 0.17515513 0.0009040119
0003d0 fa 4b cd 3a 81 5b b2 3b dd ec 75 bb 2b 4e 8a ba
       0.0015662902 0.005443037 -0.0037525215 -0.001055186
0003e0 dc ab a2 b9 3d 36 6f 3b 3c a7 0c 3b a2 97 07 3c
       -0.00031027093 0.0036500834 0.0021461984 0.008275898
0003f0 2b ae e2 3b f3 fe 91 3c 75 78 d0 bd 9e 2a ee bc
       0.006917735 0.017821765 -0.10179225 -0.029073056

conv3.bias f4 [4]
000000 72 c0 b5 3d b7 33 ec 3d 96 67 3d 3e aa 35 0c 3e
       0.08874597 0.11533301 0.18496546 0.13692346
